…
Epoch:9/10 || Epochiter: 400/403 || Iter: 3624/4030 || Loc: 1.2087 Cla: 1.6440 Landm: 3.1352 || LR: 0.00100000 || Batchtime: 1.0113 s || ETA: 0:06:51
Epoch:9/10 || Epochiter: 401/403 || Iter: 3625/4030 || Loc: 1.1970 Cla: 1.8098 Landm: 3.7610 || LR: 0.00100000 || Batchtime: 1.2018 s || ETA: 0:08:07
Epoch:9/10 || Epochiter: 402/403 || Iter: 3626/4030 || Loc: 1.2360 Cla: 1.7554 Landm: 3.4479 || LR: 0.00100000 || Batchtime: 0.9574 s || ETA: 0:06:27
Epoch:9/10 || Epochiter: 403/403 || Iter: 3627/4030 || Loc: 1.2662 Cla: 1.7301 Landm: 2.9226 || LR: 0.00100000 || Batchtime: 0.2803 s || ETA: 0:01:53
Printing net...
RetinaFace(
  (body): IntermediateLayerGetter(
    (stage1): Sequential(
      (0): Sequential(
        (0): Conv2d(3, 8, kernel_size=(3, 3), stride=(2, 2), padding=(1, 1), bias=False)
        (1): BatchNorm2d(8, eps=1e-05, momentum=0.1, affine=True, track_running_stats=True)
        (2): LeakyReLU(negative_slope=0.1, inplace=True)
      )
      (1): Sequential(
        (0): Conv2d(8, 8, kernel_size=(3, 3), stride=(1, 1), padding=(1, 1), groups=8, bias=False)
        (1): BatchNorm2d(8, eps=1e-05, momentum=0.1, affine=True, track_running_stats=True)
        (2): LeakyReLU(negative_slope=0.1, inplace=True)
        (3): Conv2d(8, 16, kernel_size=(1, 1), stride=(1, 1), bias=False)
        (4): BatchNorm2d(16, eps=1e-05, momentum=0.1, affine=True, track_running_stats=True)
        (5): LeakyReLU(negative_slope=0.1, inplace=True)
      )
      (2): Sequential(
        (0): Conv2d(16, 16, kernel_size=(3, 3), stride=(2, 2), padding=(1, 1), groups=16, bias=False)
        (1): BatchNorm2d(16, eps=1e-05, momentum=0.1, affine=True, track_running_stats=True)
        (2): LeakyReLU(negative_slope=0.1, inplace=True)
        (3): Conv2d(16, 32, kernel_size=(1, 1), stride=(1, 1), bias=False)
        (4): BatchNorm2d(32, eps=1e-05, momentum=0.1, affine=True, track_running_stats=True)
        (5): LeakyReLU(negative_slope=0.1, inplace=True)
      )
      (3): Sequential(
        (0): Conv2d(32, 32, kernel_size=(3, 3), stride=(1, 1), padding=(1, 1), groups=32, bias=False)
        (1): BatchNorm2d(32, eps=1e-05, momentum=0.1, affine=True, track_running_stats=True)
        (2): LeakyReLU(negative_slope=0.1, inplace=True)
        (3): Conv2d(32, 32, kernel_size=(1, 1), stride=(1, 1), bias=False)
        (4): BatchNorm2d(32, eps=1e-05, momentum=0.1, affine=True, track_running_stats=True)
        (5): LeakyReLU(negative_slope=0.1, inplace=True)
      )
      (4): Sequential(
        (0): Conv2d(32, 32, kernel_size=(3, 3), stride=(2, 2), padding=(1, 1), groups=32, bias=False)
        (1): BatchNorm2d(32, eps=1e-05, momentum=0.1, affine=True, track_running_stats=True)
        (2): LeakyReLU(negative_slope=0.1, inplace=True)
        (3): Conv2d(32, 64, kernel_size=(1, 1), stride=(1, 1), bias=False)
        (4): BatchNorm2d(64, eps=1e-05, momentum=0.1, affine=True, track_running_stats=True)
        (5): LeakyReLU(negative_slope=0.1, inplace=True)
      )
      (5): Sequential(
        (0): Conv2d(64, 64, kernel_size=(3, 3), stride=(1, 1), padding=(1, 1), groups=64, bias=False)
        (1): BatchNorm2d(64, eps=1e-05, momentum=0.1, affine=True, track_running_stats=True)
        (2): LeakyReLU(negative_slope=0.1, inplace=True)
        (3): Conv2d(64, 64, kernel_size=(1, 1), stride=(1, 1), bias=False)
        (4): BatchNorm2d(64, eps=1e-05, momentum=0.1, affine=True, track_running_stats=True)
        (5): LeakyReLU(negative_slope=0.1, inplace=True)
      )
    )
    (stage2): Sequential(
      (0): Sequential(
        (0): Conv2d(64, 64, kernel_size=(3, 3), stride=(2, 2), padding=(1, 1), groups=64, bias=False)
        (1): BatchNorm2d(64, eps=1e-05, momentum=0.1, affine=True, track_running_stats=True)
        (2): LeakyReLU(negative_slope=0.1, inplace=True)
        (3): Conv2d(64, 128, kernel_size=(1, 1), stride=(1, 1), bias=False)
        (4): BatchNorm2d(128, eps=1e-05, momentum=0.1, affine=True, track_running_stats=True)
        (5): LeakyReLU(negative_slope=0.1, inplace=True)
      )
      (1): Sequential(
        (0): Conv2d(128, 128, kernel_size=(3, 3), stride=(1, 1), padding=(1, 1), groups=128, bias=False)
        (1): BatchNorm2d(128, eps=1e-05, momentum=0.1, affine=True, track_running_stats=True)
        (2): LeakyReLU(negative_slope=0.1, inplace=True)
        (3): Conv2d(128, 128, kernel_size=(1, 1), stride=(1, 1), bias=False)
        (4): BatchNorm2d(128, eps=1e-05, momentum=0.1, affine=True, track_running_stats=True)
        (5): LeakyReLU(negative_slope=0.1, inplace=True)
      )
      (2): Sequential(
        (0): Conv2d(128, 128, kernel_size=(3, 3), stride=(1, 1), padding=(1, 1), groups=128, bias=False)
        (1): BatchNorm2d(128, eps=1e-05, momentum=0.1, affine=True, track_running_stats=True)
        (2): LeakyReLU(negative_slope=0.1, inplace=True)
        (3): Conv2d(128, 128, kernel_size=(1, 1), stride=(1, 1), bias=False)
        (4): BatchNorm2d(128, eps=1e-05, momentum=0.1, affine=True, track_running_stats=True)
        (5): LeakyReLU(negative_slope=0.1, inplace=True)
      )
      (3): Sequential(
        (0): Conv2d(128, 128, kernel_size=(3, 3), stride=(1, 1), padding=(1, 1), groups=128, bias=False)
        (1): BatchNorm2d(128, eps=1e-05, momentum=0.1, affine=True, track_running_stats=True)
        (2): LeakyReLU(negative_slope=0.1, inplace=True)
        (3): Conv2d(128, 128, kernel_size=(1, 1), stride=(1, 1), bias=False)
        (4): BatchNorm2d(128, eps=1e-05, momentum=0.1, affine=True, track_running_stats=True)
        (5): LeakyReLU(negative_slope=0.1, inplace=True)
      )
      (4): Sequential(
        (0): Conv2d(128, 128, kernel_size=(3, 3), stride=(1, 1), padding=(1, 1), groups=128, bias=False)
        (1): BatchNorm2d(128, eps=1e-05, momentum=0.1, affine=True, track_running_stats=True)
        (2): LeakyReLU(negative_slope=0.1, inplace=True)
        (3): Conv2d(128, 128, kernel_size=(1, 1), stride=(1, 1), bias=False)
        (4): BatchNorm2d(128, eps=1e-05, momentum=0.1, affine=True, track_running_stats=True)
        (5): LeakyReLU(negative_slope=0.1, inplace=True)
      )
      (5): Sequential(
        (0): Conv2d(128, 128, kernel_size=(3, 3), stride=(1, 1), padding=(1, 1), groups=128, bias=False)
        (1): BatchNorm2d(128, eps=1e-05, momentum=0.1, affine=True, track_running_stats=True)
        (2): LeakyReLU(negative_slope=0.1, inplace=True)
        (3): Conv2d(128, 128, kernel_size=(1, 1), stride=(1, 1), bias=False)
        (4): BatchNorm2d(128, eps=1e-05, momentum=0.1, affine=True, track_running_stats=True)
        (5): LeakyReLU(negative_slope=0.1, inplace=True)
      )
    )
    (stage3): Sequential(
      (0): Sequential(
        (0): Conv2d(128, 128, kernel_size=(3, 3), stride=(2, 2), padding=(1, 1), groups=128, bias=False)
        (1): BatchNorm2d(128, eps=1e-05, momentum=0.1, affine=True, track_running_stats=True)
        (2): LeakyReLU(negative_slope=0.1, inplace=True)
        (3): Conv2d(128, 256, kernel_size=(1, 1), stride=(1, 1), bias=False)
        (4): BatchNorm2d(256, eps=1e-05, momentum=0.1, affine=True, track_running_stats=True)
        (5): LeakyReLU(negative_slope=0.1, inplace=True)
      )
      (1): Sequential(
        (0): Conv2d(256, 256, kernel_size=(3, 3), stride=(1, 1), padding=(1, 1), groups=256, bias=False)
        (1): BatchNorm2d(256, eps=1e-05, momentum=0.1, affine=True, track_running_stats=True)
        (2): LeakyReLU(negative_slope=0.1, inplace=True)
        (3): Conv2d(256, 256, kernel_size=(1, 1), stride=(1, 1), bias=False)
        (4): BatchNorm2d(256, eps=1e-05, momentum=0.1, affine=True, track_running_stats=True)
        (5): LeakyReLU(negative_slope=0.1, inplace=True)
      )
    )
  )
  (fpn): FPN(
    (output1): Sequential(
      (0): Conv2d(64, 64, kernel_size=(1, 1), stride=(1, 1), bias=False)
      (1): BatchNorm2d(64, eps=1e-05, momentum=0.1, affine=True, track_running_stats=True)
      (2): LeakyReLU(negative_slope=0.1, inplace=True)
    )
    (output2): Sequential(
      (0): Conv2d(128, 64, kernel_size=(1, 1), stride=(1, 1), bias=False)
      (1): BatchNorm2d(64, eps=1e-05, momentum=0.1, affine=True, track_running_stats=True)
      (2): LeakyReLU(negative_slope=0.1, inplace=True)
    )
    (output3): Sequential(
      (0): Conv2d(256, 64, kernel_size=(1, 1), stride=(1, 1), bias=False)
      (1): BatchNorm2d(64, eps=1e-05, momentum=0.1, affine=True, track_running_stats=True)
      (2): LeakyReLU(negative_slope=0.1, inplace=True)
    )
    (merge1): Sequential(
      (0): Conv2d(64, 64, kernel_size=(3, 3), stride=(1, 1), padding=(1, 1), bias=False)
      (1): BatchNorm2d(64, eps=1e-05, momentum=0.1, affine=True, track_running_stats=True)
      (2): LeakyReLU(negative_slope=0.1, inplace=True)
    )
    (merge2): Sequential(
      (0): Conv2d(64, 64, kernel_size=(3, 3), stride=(1, 1), padding=(1, 1), bias=False)
      (1): BatchNorm2d(64, eps=1e-05, momentum=0.1, affine=True, track_running_stats=True)
      (2): LeakyReLU(negative_slope=0.1, inplace=True)
    )
  )
  (ssh1): SSH(
    (conv3X3): Sequential(
      (0): Conv2d(64, 32, kernel_size=(3, 3), stride=(1, 1), padding=(1, 1), bias=False)
      (1): BatchNorm2d(32, eps=1e-05, momentum=0.1, affine=True, track_running_stats=True)
    )
    (conv5X5_1): Sequential(
      (0): Conv2d(64, 16, kernel_size=(3, 3), stride=(1, 1), padding=(1, 1), bias=False)
      (1): BatchNorm2d(16, eps=1e-05, momentum=0.1, affine=True, track_running_stats=True)
      (2): LeakyReLU(negative_slope=0.1, inplace=True)
    )
    (conv5X5_2): Sequential(
      (0): Conv2d(16, 16, kernel_size=(3, 3), stride=(1, 1), padding=(1, 1), bias=False)
      (1): BatchNorm2d(16, eps=1e-05, momentum=0.1, affine=True, track_running_stats=True)
    )
    (conv7X7_2): Sequential(
      (0): Conv2d(16, 16, kernel_size=(3, 3), stride=(1, 1), padding=(1, 1), bias=False)
      (1): BatchNorm2d(16, eps=1e-05, momentum=0.1, affine=True, track_running_stats=True)
      (2): LeakyReLU(negative_slope=0.1, inplace=True)
    )
    (conv7x7_3): Sequential(
      (0): Conv2d(16, 16, kernel_size=(3, 3), stride=(1, 1), padding=(1, 1), bias=False)
      (1): BatchNorm2d(16, eps=1e-05, momentum=0.1, affine=True, track_running_stats=True)
    )
  )
  (ssh2): SSH(
    (conv3X3): Sequential(
      (0): Conv2d(64, 32, kernel_size=(3, 3), stride=(1, 1), padding=(1, 1), bias=False)
      (1): BatchNorm2d(32, eps=1e-05, momentum=0.1, affine=True, track_running_stats=True)
    )
    (conv5X5_1): Sequential(
      (0): Conv2d(64, 16, kernel_size=(3, 3), stride=(1, 1), padding=(1, 1), bias=False)
      (1): BatchNorm2d(16, eps=1e-05, momentum=0.1, affine=True, track_running_stats=True)
      (2): LeakyReLU(negative_slope=0.1, inplace=True)
    )
    (conv5X5_2): Sequential(
      (0): Conv2d(16, 16, kernel_size=(3, 3), stride=(1, 1), padding=(1, 1), bias=False)
      (1): BatchNorm2d(16, eps=1e-05, momentum=0.1, affine=True, track_running_stats=True)
    )
    (conv7X7_2): Sequential(
      (0): Conv2d(16, 16, kernel_size=(3, 3), stride=(1, 1), padding=(1, 1), bias=False)
      (1): BatchNorm2d(16, eps=1e-05, momentum=0.1, affine=True, track_running_stats=True)
      (2): LeakyReLU(negative_slope=0.1, inplace=True)
    )
    (conv7x7_3): Sequential(
      (0): Conv2d(16, 16, kernel_size=(3, 3), stride=(1, 1), padding=(1, 1), bias=False)
      (1): BatchNorm2d(16, eps=1e-05, momentum=0.1, affine=True, track_running_stats=True)
    )
  )
  (ssh3): SSH(
    (conv3X3): Sequential(
      (0): Conv2d(64, 32, kernel_size=(3, 3), stride=(1, 1), padding=(1, 1), bias=False)
      (1): BatchNorm2d(32, eps=1e-05, momentum=0.1, affine=True, track_running_stats=True)
    )
    (conv5X5_1): Sequential(
      (0): Conv2d(64, 16, kernel_size=(3, 3), stride=(1, 1), padding=(1, 1), bias=False)
      (1): BatchNorm2d(16, eps=1e-05, momentum=0.1, affine=True, track_running_stats=True)
      (2): LeakyReLU(negative_slope=0.1, inplace=True)
    )
    (conv5X5_2): Sequential(
      (0): Conv2d(16, 16, kernel_size=(3, 3), stride=(1, 1), padding=(1, 1), bias=False)
      (1): BatchNorm2d(16, eps=1e-05, momentum=0.1, affine=True, track_running_stats=True)
    )
    (conv7X7_2): Sequential(
      (0): Conv2d(16, 16, kernel_size=(3, 3), stride=(1, 1), padding=(1, 1), bias=False)
      (1): BatchNorm2d(16, eps=1e-05, momentum=0.1, affine=True, track_running_stats=True)
      (2): LeakyReLU(negative_slope=0.1, inplace=True)
    )
    (conv7x7_3): Sequential(
      (0): Conv2d(16, 16, kernel_size=(3, 3), stride=(1, 1), padding=(1, 1), bias=False)
      (1): BatchNorm2d(16, eps=1e-05, momentum=0.1, affine=True, track_running_stats=True)
    )
  )
  (ClassHead): ModuleList(
    (0): ClassHead(
      (conv1x1): Conv2d(64, 4, kernel_size=(1, 1), stride=(1, 1))
    )
    (1): ClassHead(
      (conv1x1): Conv2d(64, 4, kernel_size=(1, 1), stride=(1, 1))
    )
    (2): ClassHead(
      (conv1x1): Conv2d(64, 4, kernel_size=(1, 1), stride=(1, 1))
    )
  )
  (BboxHead): ModuleList(
    (0): BboxHead(
      (conv1x1): Conv2d(64, 8, kernel_size=(1, 1), stride=(1, 1))
    )
    (1): BboxHead(
      (conv1x1): Conv2d(64, 8, kernel_size=(1, 1), stride=(1, 1))
    )
    (2): BboxHead(
      (conv1x1): Conv2d(64, 8, kernel_size=(1, 1), stride=(1, 1))
    )
  )
  (LandmarkHead): ModuleList(
    (0): LandmarkHead(
      (conv1x1): Conv2d(64, 20, kernel_size=(1, 1), stride=(1, 1))
    )
    (1): LandmarkHead(
      (conv1x1): Conv2d(64, 20, kernel_size=(1, 1), stride=(1, 1))
    )
    (2): LandmarkHead(
      (conv1x1): Conv2d(64, 20, kernel_size=(1, 1), stride=(1, 1))
    )
  )
)
Epoch:10/10 || Epochiter: 1/403 || Iter: 3628/4030 || Loc: 1.0473 Cla: 1.6351 Landm: 2.3527 || LR: 0.00100000 || Batchtime: 1.3045 s || ETA: 0:08:45
Epoch:10/10 || Epochiter: 2/403 || Iter: 3629/4030 || Loc: 1.5164 Cla: 2.1730 Landm: 3.9853 || LR: 0.00100000 || Batchtime: 0.9355 s || ETA: 0:06:16
Epoch:10/10 || Epochiter: 3/403 || Iter: 3630/4030 || Loc: 1.1469 Cla: 1.6877 Landm: 4.5575 || LR: 0.00100000 || Batchtime: 1.0432 s || ETA: 0:06:58
…
